data.pth (torch, 3839 bytes, 6 tensors)

l1.weight f4 [8, 29]
000000 c0 52 2e 3c 74 62 9d 3e 85 ae 1d 3f 5b 1c 2b bd
       0.010639846 0.30739176 0.6159442 -0.04177509
000010 16 10 9a 3e b9 90 8c be 83 2d 14 be 2a ef 51 be
       0.30090398 -0.27454165 -0.14470486 -0.2050139
000020 43 83 00 be 90 40 6c 3e c4 99 1c bd 0c c4 e5 3d
       -0.12550072 0.23071504 -0.03823258 0.112190336
000030 57 61 e0 3d d8 8c 69 3e af 31 4f 3e 0b 21 e8 3e
       0.10956066 0.22807634 0.20233797 0.4533771
000040 5e 60 8f bc 68 ae aa be da 9f 63 be f3 cf ec bc
       -0.017502006 -0.33336186 -0.22228947 -0.028907752
000050 48 69 c6 bd 2d 72 08 3c dc a1 33 bf 55 58 24 be
       -0.096880496 0.008328003 -0.7016885 -0.16049321
000060 c4 eb b7 3e e2 13 5d 3f 37 12 c2 be a9 0d b2 be
       0.35922062 0.86358464 -0.37904522 -0.34776047
000070 74 96 9b be 49 cd 22 3f 84 60 30 be 93 7d f5 be
       -0.30388224 0.6359449 -0.17224318 -0.47947368
000080 fa 6a dd bd d8 3b bc bd 66 77 7f 3e 91 69 81 3e
       -0.1081142 -0.09191102 0.2494789 0.25275853
000090 0a dd da 3e 1e 1c 09 3f 90 e8 40 be 19 ce 95 be
       0.42746764 0.5355853 -0.18838716 -0.29258803
0000a0 82 d8 84 be 4a 0f a3 be 7e 0f a3 be e3 44 b9 be
       -0.25946432 -0.31847602 -0.31847757 -0.3618537
0000b0 d0 9c e8 be f6 74 cd bd c9 32 b5 3e 9b f0 03 3f
       -0.45432138 -0.10032074 0.35390308 0.5153901
0000c0 50 b9 27 3f 9d 81 0e 3f f2 13 28 3f 5b 2f 82 3f
       0.6551714 0.55666524 0.65655434 1.0170702
0000d0 b5 62 8d 3e df 35 39 bd 6c 0d fd 3e ec a0 01 3e
       0.2761437 -0.04521739 0.49424303 0.12659043
0000e0 8a 3d df be 4d dd 69 3f 82 64 23 3f 99 e4 be bd
       -0.43601638 0.91353303 0.6382524 -0.09320945
0000f0 44 57 6e 3e f0 f1 9b be be 9d c6 3e 42 3e 57 bc
       0.23275477 -0.3045802 0.38792223 -0.013137402
000100 ce 8a 3c 3f bb 4a 3b 3f ce 19 06 3f fc 44 6f 3e
       0.736493 0.73160905 0.52383125 0.23366159
000110 d0 a1 21 be 6c af a6 3e 0b c2 b2 3e 5e d0 ee 3e
       -0.15784383 0.3255571 0.34913668 0.46643347
000120 3d 71 c0 3e 6d 17 5d bd d0 fe 42 3f 69 17 cd 3e
       0.37586394 -0.05397742 0.76170063 0.40056923
000130 7a 41 43 3e 94 aa 12 3f 5a 72 11 3f 49 e9 0f 3f
       0.19067946 0.5729153 0.5681511 0.5621534
000140 0a 49 34 3d 25 d5 80 3f e3 4c b8 bc da 97 ca bc
       0.044014968 1.0065047 -0.0224976 -0.024730612
000150 73 42 6d 3f d8 ff 50 be be 90 21 3e d2 5a bc 3e
       0.9267952 -0.20410097 0.15777871 0.3678804
000160 dc e9 9c 3e 77 c4 2f 3f f7 81 b8 3d b1 ef a8 3e
       0.3064717 0.68659157 0.09009164 0.3299537
000170 f1 aa 9f 3e b5 22 2c 3d 2e 5e 9d 3e 88 93 03 bd
       0.31185105 0.042025287 0.30735916 -0.03212312
000180 f9 47 dd 3e 90 92 3b 3e c3 50 31 3f 7a d7 f1 3e
       0.43218973 0.18317628 0.6926386 0.47234708
000190 81 8e 0c 3f 52 ab ef 3e 00 52 e4 3e 19 84 da 3c
       0.54904944 0.46810395 0.4459381 0.026674317
0001a0 40 b9 56 3e 95 0d 01 3f 91 68 d9 bd 5b c6 65 be
       0.20969105 0.5041135 -0.106156476 -0.22438948
0001b0 f9 4b 8b be e1 05 d3 be 90 2e 3b 3e ac d5 da 3e
       -0.272064 -0.41215423 0.18279481 0.42741144
0001c0 3a 21 99 be 80 dc 6f 3e 84 0e 4c 3e 92 11 64 3b
       -0.29908162 0.23423958 0.19927412 0.0034800512
0001d0 32 72 39 be ef 8a bd bd 91 91 95 3d 2c 4f dd 3c
       -0.18109968 -0.09255015 0.07303155 0.027015291
0001e0 e1 91 be bd 7e bc 12 3e bc 3a 93 bd ee ff 99 3d
       -0.09305168 0.14329717 -0.07188937 0.07519518
0001f0 f1 77 19 3e cb 84 0a 3e 8b 12 44 be c6 cc 0e 3e
       0.1498716 0.13527219 -0.19147699 0.13945302
000200 f6 47 0b 3e 7b ad d7 3d 80 1c ca 3b 8f 32 be bd
       0.1360167 0.10531136 0.0061679482 -0.09286987
000210 19 37 3a be 2c 97 ae bd 55 7f 06 be 0a 75 b3 bc
       -0.1818508 -0.085249275 -0.13134511 -0.021906395
000220 92 29 f6 3d 7c 27 9a bd 1f 13 8d 3d d8 41 b6 bc
       0.12019648 -0.07527062 0.06888413 -0.022248194
000230 a7 7a 38 be 7c 39 48 3d ce de ac 3d 6c f5 e1 3c
       -0.18015538 0.048882946 0.08440934 0.027582847
000240 f6 75 70 3d 31 22 42 3f 3f 74 05 be 50 57 89 be
       0.058706246 0.7583342 -0.13032626 -0.26824427
000250 ab 79 a0 be 2a ed dc bd d4 f7 0d 3f 07 95 b2 be
       -0.31342825 -0.10787423 0.5545628 -0.34879324
000260 cd cf 5c bc 41 8e e7 3e 56 0d 40 be d9 ae d8 be
       -0.013477278 0.4522572 -0.18755087 -0.42320898
000270 ba 00 bc be 97 79 eb be 2f e8 95 be 23 63 cf be
       -0.36719304 -0.45991203 -0.29278705 -0.40505323
000280 17 fd c2 bd f8 7a 1e be 3b 68 63 3f e2 da 3c 3f
       -0.09520929 -0.15476596 0.8883092 0.7377149
000290 76 2d f3 3e 39 ef 29 3f b8 84 24 3f d2 bf 0e bf
       0.4749562 0.6638065 0.6426501 -0.55761445
0002a0 a0 6e ac be f7 5b ca bd 18 e0 91 3f f6 d9 9d bd
       -0.3367815 -0.09880822 1.1396513 -0.077075884
0002b0 39 f1 c6 be e6 3e 29 3d e9 c0 b1 bd 80 54 e1 3d
       -0.38855913 0.04131975 -0.08679373 0.11002445
0002c0 72 b9 fd 3d 88 49 fe bd 3f 10 aa 3d 71 a9 8c bd
       0.123888865 -0.12416369 0.0830388 -0.06868256
0002d0 ba 1c 9a bd 36 bf b6 3d 98 7c 6f bd c5 f4 a5 3c
       -0.075250104 0.08923189 -0.05846843 0.020258317
0002e0 db e0 10 3e c8 bf 0f bd 8e f4 cc 3d 48 69 2d 3d
       0.14148276 -0.035095006 0.100075826 0.042336732
0002f0 92 e2 ec 3d 0d be 1d be 2c 4d 6b bb 11 3b da bd
       0.11566652 -0.1540453 -0.0035904152 -0.10655797
000300 68 7a 96 bd 9f f7 2c be 40 5b fd 3b 00 c5 2b 3d
       -0.07347566 -0.16891335 0.007731825 0.04193592
000310 3c af 24 be bf b3 04 3e fd f9 9c 3c 23 30 00 be
       -0.16082472 0.12959193 0.019162172 -0.12518363
000320 00 3d 26 bd 41 36 1a 3e 44 1b 6b 3c d2 5c 08 3c
       -0.040585518 0.15059759 0.014349762 0.008322911
000330 98 6c 56 3e f5 cc 2c be 3d ef f8 bd 2c 9b bb 3d
       0.20939863 -0.1687506 -0.12155006 0.09160456
000340 9d 34 22 be 48 f5 c2 be 0f 87 9f be 66 9c 13 3d
       -0.15840383 -0.3807776 -0.3115773 0.036037825
000350 da cc 41 bd 95 c7 11 3e 1d 8e dd 3c 79 4d 0e bd
       -0.047314502 0.14236291 0.027045304 -0.034741852
000360 cc 0d e9 ba 60 b8 f6 bc c0 c9 0b be 43 47 b0 be
       -0.0017780601 -0.030117214 -0.1365118 -0.34429368
000370 0e ed ca bd 55 5f 1a be 25 8c 97 bd cd 86 27 3e
       -0.09908496 -0.15075429 -0.07399777 0.16360016
000380 9d 12 a8 bd 42 16 90 be 91 7f 87 be aa 1c 7a bc
       -0.08206675 -0.2814198 -0.26464513 -0.015265623
000390 8a 14 82 3f 3c 4d d7 be 2b 7b 18 be f8 46 d9 be
       1.0162518 -0.42051113 -0.14890735 -0.42436957

l1.bias f4 [8]
000000 f4 b2 80 3f f5 ad f8 3e 31 a1 05 3f 6c 59 d1 3e
       1.0054612 0.4857022 0.52199084 0.40888536
000010 7a d5 38 be a6 1d 04 3f a9 65 1a be 41 a9 34 3f
       -0.18050185 0.5160774 -0.15077843 0.7057076

l2.weight f4 [8, 8]
000000 19 aa c3 3e a1 32 bc 3e 37 3d 7b be 57 d7 e2 be
       0.38215712 0.36757377 -0.2453507 -0.44304916
000010 af 20 72 bc aa a8 9b 3f 48 99 15 be c3 bd 72 3f
       -0.0147783 1.2160847 -0.14609253 0.94820803
000020 01 dd ab be 0f 0a 77 be 7f c3 8b be fb db 0e be
       -0.3356705 -0.24124931 -0.2729759 -0.13951103
000030 05 c0 2f 3e 66 c9 52 3d 84 30 f6 3d dd fc a3 3e
       0.17163093 0.0514616 0.12020972 0.32028857
000040 a6 7d 63 3f 96 b8 b8 bd c4 1c 78 bf 1b 3e d3 3f
       0.888636 -0.09019582 -0.9691889 1.6503328
000050 2d 94 99 be f9 11 02 bf 88 c2 35 3d 2a 54 c0 3d
       -0.29995862 -0.50808674 0.044374973 0.09391053
000060 6f 06 2a be 8f cc 15 3c ed 64 82 3f e7 c9 4d 3f
       -0.16604017 0.009143009 1.018705 0.80386204
000070 e8 66 23 be e8 5e 24 3f 68 a6 c7 3d 5e 3b c3 be
       -0.15957224 0.64207315 0.09748536 -0.3813123
000080 a3 ed 33 bf d6 0f e5 3f 02 b5 95 3f 0c ef 88 be
       -0.7028448 1.7895458 1.1695864 -0.26744878
000090 05 a5 9e 3d 71 57 ad 3e d7 aa 94 3c 97 3e 1e bf
       0.07746319 0.33855775 0.018147869 -0.61814255
0000a0 32 53 9e 3e be ba 8b 3e 26 6a 73 be 87 fa da be
       0.30922848 0.2729091 -0.23770961 -0.42769262
0000b0 76 79 81 be 3a 5d b6 3f 14 4f 3f be f3 05 55 3f
       -0.2528798 1.42472 -0.1868251 0.832122
0000c0 32 77 ca 3f ca f8 ae be 6f 6d 96 3f 69 06 c5 3e
       1.5817626 -0.34174186 1.1752146 0.38481453
0000d0 66 d6 80 3e 24 f2 3f 3f fd e4 7c 3e b9 ac b8 3f
       0.25163573 0.7497885 0.24696727 1.4427711
0000e0 a0 b2 4a 3f 78 a8 00 be 3a 37 35 3f e4 e1 bf 3e
       0.7917881 -0.12564266 0.70787394 0.37477028
0000f0 01 2e a4 3e 3f 3a e5 be 50 3a f4 3d 4e e7 c4 be
       0.32066348 -0.44771 0.11925185 -0.3845772

l2.bias f4 [8]
000000 16 70 27 bf cb c2 06 bd 9b 31 6b 3f 53 2d 33 bf
       -0.65405405 -0.032900613 0.91872567 -0.69991034
000010 be 88 a9 3e 34 50 f9 be c6 53 cd bc ab 79 b2 be
       0.33112139 -0.48694003 -0.02506436 -0.3485845

l3.weight f4 [6, 8]
000000 4b 0a 31 3f fa 43 f9 ba 3b b4 92 bf ef 2e 8b bf
       0.6915633 -0.0019017451 -1.1461252 -1.0873698
000010 51 34 8e bf e3 23 40 3f 93 4a 08 3e 1f b0 db bf
       -1.1109716 0.7505476 0.13309698 -1.7163123
000020 e6 d6 39 bf e0 92 bb bc 48 3a d5 bf 47 e6 89 bf
       -0.72593534 -0.022897184 -1.6658411 -1.07734
000030 d5 e3 b5 3f 0d 6f af bf 05 55 90 bf 69 8e 89 bf
       1.4210154 -1.3705765 -1.1275946 -1.0746585
000040 cb 4d 0f 3e 06 d9 12 3e 74 da dd bf cf 65 f0 3e
       0.1399452 0.143406 -1.7332292 0.46952674
000050 0b 2e b5 3d 42 d2 a9 3d 83 18 a2 be 65 dd 8b bf
       0.088466726 0.082920566 -0.31659326 -1.0926939
000060 9e 65 82 bf 2d 76 a4 b9 c5 51 b6 be 9e dc 6b bd
       -1.0187261 -0.00031368565 -0.3560926 -0.057583444
000070 47 06 05 c0 06 2d be bf c9 2b 60 3f fc 40 84 3f
       -2.0785081 -1.485749 0.8756681 1.0332332
000080 ea 61 10 bf 80 5a 98 be c2 04 3a 3f 8b 4c 11 bf
       -0.56399405 -0.29756546 0.7266351 -0.5675742
000090 7b e9 8a 3e 37 f8 4e bf 47 30 60 bf 81 e3 fa bf
       0.27131256 -0.80847496 -0.87573665 -1.9600679
0000a0 a1 0d 4f bf bb a8 aa 3e c1 bb af bf 2e 31 2e 3f
       -0.8088017 0.33331856 -1.3729173 0.6804379
0000b0 a5 1f 22 3e a5 e3 b2 bf db 57 c6 be f2 fb 38 3f
       0.15832384 -1.3975722 -0.38738903 0.7225944

l3.bias f4 [6]
000000 f6 46 08 bf cc 84 81 3e 6a d9 28 bf 9c 93 66 3f
       -0.5323328 0.25296628 -0.6595675 0.90068984
000010 81 86 d8 3e a0 78 18 bf
       0.42290118 -0.5955906
